model_double_dqn.pth (torch_old, 54725 bytes, 6 tensors)

network.fc0.weight f4 [128, 37]
0	0x3eb28df4	0.34873927
1	0xbe97f14f	-0.2967629
2	0xbe2340f2	-0.15942743
3	0xbd532fc0	-0.05155921
4	0xbd3b2bdd	-0.04569613
5	0xbebc78ea	-0.36811
6	0x3ec54334	0.38527834
7	0x3e2b4bc4	0.16728121
8	0x3eaecb42	0.34139448
9	0x3da73bca	0.08165701
10	0x3e14bb2e	0.14524528
11	0x3d0d5d3c	0.034512743
12	0xbd8b6ad1	-0.06807483
13	0xbf15e5d2	-0.585538
14	0x3df4115a	0.11917372
15	0x3eaa3b42	0.33248335
16	0x3e58a5a6	0.2115694
17	0x3cbb7588	0.022883192
18	0xbed82e8a	-0.42223006
19	0xbeb18712	-0.34673363
20	0x3e11da82	0.1424351
21	0x3e4f3348	0.20234406
22	0x3e1583eb	0.14601104
23	0xbf0952d9	-0.5364204
24	0xbcec3ea3	-0.028838461
25	0x3ea61ef0	0.32445478
26	0xbf07d274	-0.530555
27	0x3e5642d6	0.20923933
28	0xbe48d0ce	-0.19610903
29	0xbeba5509	-0.36393002
30	0xbdd44a77	-0.103657655
31	0x3e57157d	0.21004291
32	0xbe58e0e4	-0.21179539
33	0x3e2385fa	0.15969077
34	0x3ce5882e	0.028019037
35	0xbde3680b	-0.11103829
36	0xbd4c644d	-0.04990034
37	0x3e2a63cb	0.1663963
38	0x3e266ca4	0.1625238
39	0x3e2fbb2d	0.17161246
40	0xbebb9ca4	-0.36642945
41	0xbd10865b	-0.03528438
42	0x3df8dd25	0.12151555
43	0xbef673cb	-0.48135218
44	0xbe7e6b1f	-0.24845551
45	0x3ec8c60e	0.39213604
46	0xbde7f1f7	-0.11325448
47	0x3da3e013	0.08001723
48	0xbdc4a0e4	-0.09601
49	0xbe8b2415	-0.27175966
50	0x3ddd201c	0.1079714
51	0xbe63af97	-0.22234951
52	0xbe5fb704	-0.21847159
53	0x3e7db1bd	0.24774833
54	0xbd3bcd68	-0.045850188
55	0xbd6a295f	-0.05716836
56	0x3e4c2c5d	0.19938798
57	0x3dbbb598	0.09165496
58	0xbdc771fc	-0.09738538
59	0xbea7d4d9	-0.32779577
60	0x3eb2f191	0.34949926
61	0x3d21e437	0.039524283
62	0x3e7b55b1	0.24544407
63	0xbf1a1ba2	-0.60198414
64	0xbe2db7dd	-0.1696467
65	0x3e98ac77	0.2981908
66	0xbc832f0d	-0.016013646
67	0x3e3f29c0	0.1866827
68	0xbec3c98d	-0.3823971
69	0xbf062f7c	-0.52416205
70	0xbe6279e1	-0.22116806
71	0xbf95b292	-1.169512
72	0x3d303beb	0.043025892
73	0xbca286fd	-0.019839758
74	0x3d2579f2	0.0403995
75	0x3d13d462	0.036091216
76	0xbc0fc8b2	-0.008775877
77	0x3d740ad6	0.059580646
78	0x3d5452d8	0.05183682
79	0x3ebda1ee	0.37037605
80	0x3c8d828d	0.017274166
81	0xbf4a1575	-0.7893899
82	0xbdb7826f	-0.08960425
83	0xbf0bdb9d	-0.5463198
84	0xbcbee086	-0.02330042
85	0x3e34e894	0.17666847
86	0xbe16e2c0	-0.14734936
87	0x3cf7a52d	0.03023013
88	0x3a3a7960	0.0007113423
89	0x3e92c59b	0.28666386
90	0xbeef210c	-0.467049
91	0xbdb09cc4	-0.08623651
92	0x3d021dc8	0.031766683
93	0xbca27233	-0.019829845
94	0xbddbcc00	-0.10732269
95	0xbd78ed61	-0.060773257
96	0x3e7bf377	0.24604593
97	0x3e2ccfd0	0.16876149
98	0x3d735ccc	0.05941467
99	0x3dc83eba	0.09777589
100	0x3d60d117	0.054886904
101	0x3c84a692	0.016192708
102	0xbd96f3ff	-0.07370757
103	0xbdd53cc2	-0.10411979
104	0x3e1131b7	0.14179121
105	0xbe83463f	-0.2563953
106	0xbc36dca8	-0.011161007
107	0xbddf86f0	-0.10914409
108	0xbe21facc	-0.15818328
109	0x3c213a10	0.009840503
110	0xbd3d6722	-0.046240933
111	0xbe3c517b	-0.18390457
112	0xbc15b6ee	-0.009137852
113	0x3dea0143	0.11426022
114	0x3daefb49	0.085440226
115	0xbd1169b8	-0.035501212
116	0xbdf01205	-0.11722187
117	0xbeacc9f6	-0.33747834
118	0xbe99ac51	-0.3001428
119	0x3e8d0b2e	0.27547592
120	0x3ec46d1d	0.38364497
121	0x3e6bd5fa	0.23030844
122	0xbdc72eb2	-0.09725703
123	0xbee2a8ef	-0.4426951
124	0xbe63664d	-0.22206993
125	0xbeef0701	-0.4668503
126	0x3d139733	0.036032867
127	0xbde94fbe	-0.11392163
128	0xbdd9cda6	-0.106349275
129	0xbe115dc5	-0.14195926
130	0x3e35b129	0.17743362
131	0xbddfebd2	-0.10933651
132	0xbcd71c0d	-0.026258493
133	0xbe30f556	-0.17281088
134	0xbe4816e6	-0.19539985
135	0xbe986ee4	-0.29772103
136	0x3d92229a	0.07135506
137	0x3e8116c1	0.25212672
138	0xbef02be5	-0.4690849
139	0x3d962231	0.0733074
140	0x3f59b92e	0.85048187
141	0x3df684f1	0.12037075
142	0xbe88432c	-0.26613748
143	0xbf0622fb	-0.52397126
144	0xbe799280	-0.24372292
145	0x3ebe235b	0.3713635
146	0x3da30471	0.079598315
147	0xbcd52412	-0.026018176
148	0xbd7c7e8b	-0.06164412
149	0x3baedbfe	0.0053362837
150	0x3c13b5a4	0.0090154745
151	0x3dec407c	0.11535737
152	0xbf1482bc	-0.58011985
153	0x3e38952e	0.18025658
154	0x3dd56b90	0.104209065
155	0xbdf4d7a0	-0.1195519
156	0xbeb8a881	-0.36066058
157	0x3d82689b	0.06367608
158	0x3e8acc95	0.2710921
159	0x3d86f737	0.06590121
160	0xbe5c7bc8	-0.21531594
161	0xbe2c2644	-0.16811472
162	0xbe86b7e9	-0.26312187
163	0xbc9f8c23	-0.019476002
164	0xbebfb429	-0.3744214
165	0xbe2bfd0c	-0.16795748
166	0x3ee3328f	0.4437451
167	0x3dcba2c7	0.09943157
168	0x3e3cefb9	0.18450822
169	0xbe218f4f	-0.15777324
170	0xbd98a871	-0.07454003
171	0xb922c11f	-0.00015521467
172	0xbdfd98de	-0.12382673
173	0xbdcba0cf	-0.09942781
174	0xbf1792e2	-0.592085
175	0x3ed35bb4	0.412809
176	0xbda80438	-0.0820393
177	0x3e470a40	0.19437504
178	0x3e5d83ba	0.21632281
179	0xbe4ed0d1	-0.20196845
180	0xbe50e5d0	-0.20400167
181	0x3ceaa4d2	0.028643046
182	0xbebcb902	-0.368599
183	0xbe1f68a1	-0.15567257
184	0x3da92442	0.08258869
185	0xbddae98f	-0.10689079
186	0xbd0db015	-0.034591753
187	0xbe085fda	-0.13317814
188	0x3dc88723	0.097914
189	0x3de183c3	0.1101146
190	0x3d8519eb	0.06499084
191	0xbc5d1e76	-0.013496032
192	0x3d8ac19c	0.06775209
193	0xbebc776a	-0.36809856
194	0x3e4e4e4a	0.20147052
195	0xbeadd4f7	-0.33951542
196	0x3d36c0c8	0.044617444
197	0x3e944fc1	0.28967097
198	0xbcffb6b2	-0.031215046
199	0xbe35a9cb	-0.17740552
200	0xbf0874e3	-0.53303355
201	0x3e2f1c43	0.17100625
202	0x3eb6fc9d	0.35739604
203	0xbca41641	-0.020030143
204	0xbe6aa14d	-0.22913094
205	0xbe1158b8	-0.14194
206	0x3ebd4119	0.36963728
207	0xbccf1948	-0.02528061
208	0xbedebd7b	-0.43503937
209	0x3e66c6e2	0.22536805
210	0xbe84bdc9	-0.25926045
211	0x3dd5e8c2	0.10444786
212	0x3d6ccf7c	0.05781506
213	0x3e11fe46	0.14257154
214	0xbce2e053	-0.027694857
215	0x3d1125e1	0.035436515
216	0xbe8cf514	-0.2753073
217	0x3b4476a2	0.0029977937
218	0xbdbf08f1	-0.09327877
219	0x3e60b299	0.2194313
220	0xbda6b84b	-0.0814062
221	0xbda664e8	-0.08124715
222	0x3e4f43a3	0.20240645
223	0x3ea7608e	0.32690853
224	0xbf044a75	-0.5167611
225	0xbf028919	-0.50990444
226	0xbf0405d3	-0.5157139
227	0xbe117095	-0.14203103
228	0xbf122e7c	-0.5710218
229	0x3e17ea91	0.14835574
230	0x3d9c32e1	0.07626892
231	0xbdd2a395	-0.10285107
232	0x3e7bb4c3	0.24580674
233	0xbda3dd28	-0.080011666
234	0xbd4f897e	-0.050668232
235	0xbf4d6c63	-0.8024351
236	0xbf51ca56	-0.81949365
237	0x3dd7fa10	0.105457425
238	0xbecca5c0	-0.39970207
239	0x3dd9d982	0.106371894
240	0xbd1e82fc	-0.038699135
241	0xbdde4cd8	-0.108545005
242	0xbe1b83cf	-0.15187
243	0xbf0ec188	-0.55764055
244	0x3ea9ba43	0.3314992
245	0xbeb4431b	-0.35207447
246	0x3ec12cf3	0.37729606
247	0x3e269637	0.1626824
248	0x3e875030	0.26428366
249	0x3d106a9a	0.035257913
250	0xbe35e805	-0.1776429
251	0xbf0d81ca	-0.5527617
252	0xbd81145e	-0.06302713
253	0x3e86d26d	0.26332417
254	0x3df7e802	0.12104799
255	0xbe557b0e	-0.20847723

network.fc0.bias f4 [128]
0	0xbd38832f	-0.04504698
1	0x3cf65df0	0.03007409
2	0x3deb6164	0.11493185
3	0xbb992349	-0.004673396
4	0xbe6148b5	-0.22000392
5	0x3e0185b7	0.12648664
6	0x3d4a5eab	0.04940669
7	0x3db0e855	0.08638064
8	0xbe3830ee	-0.17987415
9	0xbdcd0c68	-0.10012132
10	0x3e5d51b6	0.21613201
11	0x3e346c22	0.17619374
12	0xbe27d310	-0.16389108
13	0xbe0de17f	-0.13855551
14	0x3c121f36	0.008918574
15	0xbe2f17ab	-0.17098872
16	0xbcda0b85	-0.026616821
17	0xbc702480	-0.01465714
18	0xbd5142cd	-0.051089097
19	0x3d9d236b	0.07672771
20	0xbe03ab63	-0.12858348
21	0x3e29eb22	0.16593602
22	0xbe3c9c75	-0.18419059
23	0xbdbd1b38	-0.09233707
24	0xbe1a792b	-0.15085284
25	0x3ddae36c	0.106879085
26	0x3d3dd10d	0.046341944
27	0xbe1678ca	-0.14694515
28	0x3d983bce	0.07433282
29	0x3ccc46b1	0.024936052
30	0x3d41102e	0.04713457
31	0x3e34fdc2	0.17674926
32	0x3be7ed7e	0.007077872
33	0xbe71ee02	-0.23625949
34	0x3e0b37f1	0.13595559
35	0x3e323662	0.17403558
36	0x3c835cba	0.016035426
37	0x3da3d884	0.080002815
38	0x3cbb849e	0.022890385
39	0x3e24bed3	0.16088419
40	0xbbe7825e	-0.0070651015
41	0xbe04071f	-0.12893341
42	0xbe153ed1	-0.14574744
43	0xbe14d925	-0.14535959
44	0x3dedf833	0.11619606
45	0x3dceba08	0.100940764
46	0x3d62b8b9	0.055351947
47	0xbd3c7a8f	-0.04601532
48	0xbd001ec3	-0.031279337
49	0x3df16b9d	0.11788104
50	0xbd9a8dae	-0.075465545
51	0xbd896d2c	-0.06710276
52	0xbe6d838e	-0.23194715
53	0x3a15b496	0.00057108083
54	0xbe71d28c	-0.23615474
55	0x3dd19b9e	0.1023476
56	0xbda7bef7	-0.081907205
57	0xbe0b3b16	-0.13596758
58	0x3d613e92	0.054991312
59	0xbd95349f	-0.07285427
60	0xbde86588	-0.113474905
61	0x3db5915d	0.088656165
62	0x3db0a0d7	0.08624428
63	0xbe17f6f8	-0.14840305
64	0x3bad3106	0.005285385
65	0xbc49bfc3	-0.012313786
66	0xbe16855a	-0.14699307
67	0xbd4d9197	-0.050187673
68	0xbdde3291	-0.108494885
69	0x3d75ef9e	0.06004297
70	0xbc81107e	-0.015754934
71	0x3de207c6	0.11036639
72	0xbe5c558b	-0.21517007
73	0x3bab0e8f	0.0052202414
74	0xbe06e478	-0.13173091
75	0xbd7dcc46	-0.06196239
76	0xbe5104ec	-0.20412034
77	0x3d9d1ccc	0.07671508
78	0xbdb64727	-0.0890029
79	0xbd947cb8	-0.07250351
80	0xbe2c8440	-0.16847324
81	0xbe01008f	-0.1259787
82	0xbdd77b0b	-0.105215155
83	0xbe18d1cb	-0.1492378
84	0xbe0a778b	-0.13522165
85	0xbe05a8f9	-0.13052739
86	0x3cbbf518	0.022944018
87	0x3d8807ae	0.0664209
88	0x3d228b54	0.039683655
89	0x3ded6c0e	0.115928754
90	0xbe2d65ce	-0.16933367
91	0xbdae9d29	-0.0852607
92	0xbd2fd9f0	-0.04293245
93	0xbdc2afc3	-0.0950618
94	0x3da8a583	0.08234694
95	0xbdd14358	-0.10217923
96	0xbc228b24	-0.009920869
97	0x3dd0fe3c	0.10204741
98	0xbd06298c	-0.032754466
99	0xbe042026	-0.12902889
100	0xbd945ae1	-0.07243896
101	0x3e05641b	0.13026468
102	0xbc6c520d	-0.014423859
103	0x3cea6804	0.028614052
104	0x3e20dd52	0.15709427
105	0x3db6fb5b	0.08934661
106	0xbd7104a7	-0.058842327
107	0x3e025a9f	0.12729882
108	0x3df04e40	0.11733675
109	0x3dc8188a	0.097703055
110	0xbe734656	-0.237573
111	0xbd872cb7	-0.066003256
112	0x3e2bf407	0.16792308
113	0x3d875270	0.066075206
114	0x3df8f9ac	0.12156996
115	0xbe135d60	-0.14391088
116	0x3eb31a5c	0.34981048
117	0xbe11894d	-0.14212532
118	0x3e1e0a24	0.15433556
119	0x3df4bdb7	0.11950248
120	0xbc7adb55	-0.015311082
121	0xbe0c7c37	-0.13719259
122	0x3da13ae1	0.078725584
123	0xbe736402	-0.23768619
124	0x3dbbd8a1	0.09172178
125	0x3de444ef	0.111459605
126	0xbde74c2a	-0.11293824
127	0x3d9cbe7f	0.07653522

network.fc1.weight f4 [64, 128]
0	0xbf02f12d	-0.51149255
1	0xbe0d7c77	-0.13817011
2	0xbc08057b	-0.008302088
3	0x3e19afe5	0.15008505
4	0xbe995cea	-0.299537
5	0x3c510419	0.012757325
6	0x3de2c914	0.11073509
7	0xbdef8c2f	-0.1169666
8	0xbe842ba5	-0.25814548
9	0x3ec6685d	0.38751498
10	0xbe0c710d	-0.13715
11	0xbd923808	-0.07139593
12	0xbee381ea	-0.44435054
13	0xbe87b0d6	-0.26502103
14	0x3e0b2bfb	0.13590996
15	0xbf34d9af	-0.7064466
16	0x3d8b4b8a	0.06801517
17	0x3e9ad7f1	0.30242875
18	0x3e903133	0.28162536
19	0x3da4f886	0.080552146
20	0x3d6d4a2f	0.057932075
21	0xbdcc821f	-0.09985756
22	0xbcbbea99	-0.022939013
23	0x3da89fcb	0.08233603
24	0xbe0a683c	-0.13516325
25	0x3e4518ce	0.19247743
26	0x3e63f4df	0.2226138
27	0xbdd85020	-0.10562158
28	0x3dd94b7d	0.10610101
29	0x3e925625	0.28581348
30	0x3ef1a2fa	0.47194654
31	0x3df27acc	0.11839828
32	0xbf0acdff	-0.54220575
33	0xbe839ae9	-0.25704125
34	0xbee0424e	-0.43800586
35	0x3e122943	0.14273553
36	0x3e0af209	0.13568892
37	0x3e2ce7d3	0.16885309
38	0xbdab3dd3	-0.083614014
39	0x3e2246ad	0.15847273
40	0xbf0cb6d7	-0.5496649
41	0x3e1d29b6	0.15347943
42	0x3e2f0d66	0.17094955
43	0xbdb22753	-0.08698907
44	0x3e0c3f9c	0.1369614
45	0xbe350ffe	-0.17681882
46	0x3ccae021	0.024765076
47	0x3e4ea1fa	0.20178977
48	0xbd21d5a4	-0.039510384
49	0xbf2fdd45	-0.68697006
50	0xbf5904a9	-0.84772736
51	0x3e25257a	0.16127577
52	0x3e6e0820	0.23245287
53	0x3e95bdaa	0.29246265
54	0xbda4c0b7	-0.0804457
55	0xbe8fbf81	-0.28075793
56	0xbd0854df	-0.033284064
57	0x3dc85767	0.09782296
58	0xbf010615	-0.50399905
59	0xbde9ac58	-0.11409825
60	0xbf29e4ef	-0.6636495
61	0xbf01baa3	-0.5067541
62	0x3d770a4c	0.060312554
63	0xbe9170ba	-0.28406316
64	0xbed0408d	-0.40674248
65	0xbf023bb4	-0.5087235
66	0xbef2fd8d	-0.4745907
67	0xbe295521	-0.1653638
68	0x3dc1eb1c	0.09468672
69	0x3edec666	0.4351074
70	0xbedea915	-0.43488374
71	0x3d66a581	0.05631018
72	0x3efc02dd	0.49220935
73	0x3dd0f98a	0.10203846
74	0x3ca3085a	0.019901443
75	0x3e021d6f	0.1270654
76	0xbcdc45d1	-0.02688876
77	0xbeb70864	-0.3574859
78	0x3d92ca6b	0.071675144
79	0x3dc05b58	0.093924224
80	0x3defba49	0.11705453
81	0x3ef89a32	0.48555142
82	0xbea7ef29	-0.32799652
83	0x3e392a6e	0.18082592
84	0x3dbe56fd	0.092939354
85	0x3e2b1b0e	0.1670954
86	0xbf1ca84a	-0.6119429
87	0x3ea5debd	0.32396498
88	0xbe5765e5	-0.21034963
89	0xbec936d0	-0.3929963
90	0xbec4bfd5	-0.38427606
91	0xbe8dfe76	-0.277332
92	0x3e537dff	0.20653532
93	0xbecab263	-0.39589223
94	0xbecba56b	-0.3977464
95	0x3ea0d08d	0.31409112
96	0x3e0adb78	0.13560283
97	0x3cf7e87b	0.030262223
98	0xbd976c84	-0.073937446
99	0xbf747ee7	-0.9550614
100	0x3e789b57	0.24278007
101	0x3ba6d16b	0.0050908825
102	0xbec3d36c	-0.3824724
103	0x3e23f41e	0.16011092
104	0xbe00f7f7	-0.12594591
105	0xbdf0a5ac	-0.117503494
106	0x3d91623a	0.07098813
107	0x3e71e95f	0.2362418
108	0xbea2245b	-0.31668362
109	0x3bbed25f	0.005823418
110	0x3e8da69e	0.2766618
111	0x3f0434b2	0.51642907
112	0xbf64ac11	-0.8932505
113	0xbf172407	-0.5903935
114	0x3d90983b	0.07060286
115	0xbcd4466f	-0.025912492
116	0xbda08828	-0.0783847
117	0xbe3fe588	-0.18739903
118	0x3dd93ac4	0.10606912
119	0xbe1815a0	-0.14852
120	0xbe8ee4b5	-0.27908865
121	0xbe7a3ce6	-0.24437293
122	0x3bf4d359	0.0074714837
123	0xbdbfd949	-0.09367616
124	0x3c4f117e	0.012638448
125	0x3e6e9968	0.23300707
126	0xbdcdaffe	-0.100433335
127	0xbcc4df87	-0.024032367
128	0xbedac81d	-0.427308
129	0xbf309668	-0.689795
130	0xbe2c3cf3	-0.16820125
131	0xbe9a1cd0	-0.30100107
132	0xbf55a467	-0.83453983
133	0xbef43b67	-0.4770157
134	0xbf093fd5	-0.53613025
135	0xbe715d17	-0.23570667
136	0xbe2e5dd5	-0.17027982
137	0xbf0230be	-0.50855625
138	0xbc15b048	-0.009136267
139	0x3d371f05	0.044707317
140	0xbf062974	-0.52407
141	0x3e894bf8	0.26815772
142	0xbf123087	-0.57105297
143	0x3dc6ad46	0.09701018
144	0x3e10d02a	0.14141908
145	0xbde04a23	-0.109516405
146	0xbf31876f	-0.6934728
147	0xbeed57a4	-0.46355927
148	0xbe9e8ec0	-0.30968285
149	0xbdf5803f	-0.119873516
150	0x3f0efd6c	0.5585544
151	0xbea6407d	-0.32471076
152	0x3dc89229	0.09793503
153	0xbc911dc9	-0.017714398
154	0x3eac7479	0.33682612
155	0xbd186f80	-0.03721571
156	0x3e627835	0.22116168
157	0xbdfc1f99	-0.12310714
158	0x3e9b7eef	0.3037028
159	0xbf30d32e	-0.69072235
160	0x3dfc71eb	0.12326416
161	0x3eb92a1a	0.36164933
162	0xbf2ffc50	-0.68744373
163	0x3edfb9ca	0.43696433
164	0xbe3133d8	-0.17304933
165	0x3d573ba6	0.05254712
166	0x3cc63b1c	0.024198107
167	0x3e209ffa	0.15686026
168	0x3e46dbf4	0.19419843
169	0xbeb38e31	-0.3506942
170	0xbf0dc526	-0.5537895
171	0x3c5a881f	0.013338118
172	0x3dded5c6	0.10880618
173	0xbe18b6a7	-0.14913426
174	0x3bf139b7	0.0073616165
175	0xbf213140	-0.62965775
176	0x3f100e29	0.56271607
177	0x3e2d8b71	0.16947724
178	0xbeff65da	-0.49882394
179	0x3d630dd8	0.055433124
180	0x3e256cef	0.16154836
181	0xbf62c130	-0.8857603
182	0xbe68dde0	-0.22740889
183	0xbef4c93b	-0.47809777
184	0x3d58102b	0.052749794
185	0xbe2adfba	-0.16686907
186	0x3dc6111a	0.096712306
187	0x3e84c171	0.25928834
188	0xbec2591b	-0.37958607
189	0xbe083719	-0.13302268
190	0xbdb07b88	-0.08617312
191	0x3ea668e3	0.32501897
192	0xbde497f3	-0.111617945
193	0xbea89346	-0.3292486
194	0x3e692e1b	0.22771494
195	0x3d8dc577	0.06922429
196	0x3e907931	0.28217462
197	0x3f0a7be9	0.5409532
198	0x3c7d0558	0.015443169
199	0xbcd6d6d3	-0.026225483
200	0xbc64b710	-0.013959661
201	0xbd1b4531	-0.037907783
202	0xbed67127	-0.41883203
203	0xbf232128	-0.6372247
204	0x3e471d18	0.19444692
205	0xbf00dab3	-0.5033371
206	0x3df232ff	0.11826133
207	0xbf3d5be4	-0.7396834
208	0xbf0b7b66	-0.54485166
209	0x3cd6ade0	0.026205957
210	0xbe1a1874	-0.1504839
211	0xbd8e7b97	-0.06957167
212	0x3ea5651e	0.3230371
213	0xbeda3b8d	-0.4262356
214	0xbf2e1b1c	-0.68010116
215	0xbe4a9f72	-0.19787386
216	0xbcc3f68e	-0.023921277
217	0xbf849d7a	-1.0360558
218	0xbd0f3342	-0.034960993
219	0x3c9fa833	0.019489383
220	0xbf6b09fc	-0.9181211
221	0x3d8d3867	0.068955235
222	0xbd2541cb	-0.04034595
223	0xbe3cb0f9	-0.18426885
224	0x3eca5158	0.39515185
225	0x3e361ee5	0.17785223
226	0xbe94155d	-0.2892255
227	0x3e133bd1	0.14378287
228	0x3ec0c6c1	0.37651637
229	0xbea9895f	-0.33112618
230	0xbe823dcc	-0.25437772
231	0xbe8f1596	-0.27946156
232	0xbce4a220	-0.027909338
233	0x3e261a50	0.16220975
234	0x3de590c4	0.112092525
235	0xbdcf735a	-0.101294234
236	0xbe5f2e21	-0.2179494
237	0xbeab68af	-0.33478305
238	0x3e8f914d	0.28040543
239	0xbef8a000	-0.4855957
240	0xbe974498	-0.2954452
241	0xbdb1dfca	-0.086852625
242	0xbd953ba9	-0.0728677
243	0xbf9afdda	-1.2108719
244	0xbe3ae291	-0.1825049
245	0xbf39c6f6	-0.72569215
246	0x3dd9c5c3	0.10633423
247	0x3bfe4822	0.0077600637
248	0xbd7288ac	-0.05921237
249	0xbd5182ec	-0.051150247
250	0xbd4372d9	-0.04771695
251	0x3ca381a0	0.019959271
252	0xbc0334d4	-0.008008201
253	0x3ea9d0f9	0.33167246
254	0xbf2f188c	-0.6839683
255	0x3d948d5a	0.07253523

network.fc1.bias f4 [64]
0	0xbe1281b6	-0.14307293
1	0xbbea927a	-0.0071585746
2	0x3defddb2	0.11712207
3	0x3da4c571	0.080454715
4	0xbdc98240	-0.09839296
5	0x3dd69d08	0.1047917
6	0xbd34a51f	-0.044102784
7	0xbd7512b6	-0.059832297
8	0x3c7c2b11	0.015391127
9	0x3e5a1556	0.21297202
10	0x3dab2403	0.08356478
11	0xbde3202e	-0.11090122
12	0x3f0b444d	0.54401094
13	0x3b33d8ae	0.0027442384
14	0xbd0cf683	-0.03441478
15	0xbdca0ec9	-0.09866101
16	0x3f464ac9	0.77457863
17	0xbebc1fc1	-0.36742976
18	0x3e202e95	0.1564277
19	0xbd1bb339	-0.038012717
20	0xbeadd4a6	-0.339513
21	0xbd96e402	-0.07367708
22	0xbe55268f	-0.2081549
23	0x3e694e73	0.22783832
24	0xbdd5f6bb	-0.10447451
25	0x3e0a221b	0.13489573
26	0xbd7d642c	-0.06186311
27	0xbcfba1e3	-0.030716842
28	0x3fa03d42	1.2518694
29	0x3de299d3	0.11064496
30	0x37b1e560	2.1206855e-05
31	0xbe9035c1	-0.2816601
32	0xbe20e6fa	-0.1571311
33	0xbe1a9f34	-0.15099794
34	0x3d25ffbb	0.040527087
35	0x3da74149	0.08166749
36	0x3e6df865	0.23239286
37	0x3eb7d35a	0.35903436
38	0xbdc5449d	-0.096322276
39	0xbd410b88	-0.047130138
40	0x3d9189af	0.07106339
41	0x3bd3def1	0.0064657857
42	0xbd3e0e83	-0.04640056
43	0xbdb2ccda	-0.087304786
44	0x3d0aec80	0.03391695
45	0x3df965ce	0.12177621
46	0xbe97d9cd	-0.29658356
47	0xbd7371a6	-0.059434555
48	0x3bff6ec2	0.007795186
49	0x3f67390f	0.9032144
50	0x3d525a89	0.051355872
51	0x3d2efcdc	0.042721614
52	0xbd3a645f	-0.045505878
53	0xbc322497	-0.0108729815
54	0xbda3d5af	-0.07999741
55	0x3c7f33dd	0.01557633
56	0xbe0b0616	-0.1357654
57	0xbcaa5a2a	-0.020794947
58	0x3e791fb8	0.24328506
59	0x3d8deb8c	0.069296926
60	0xbceaf868	-0.028682902
61	0x3edf13fe	0.4356994
62	0x3c46a850	0.01212509
63	0xbd3eed3e	-0.04661297

network.fc2.weight f4 [4, 64]
0	0xbdabecf2	-0.08394803
1	0x3da300ca	0.07959135
2	0x3e5d2470	0.21595931
3	0x3e818bb8	0.2530191
4	0xbf790b95	-0.972833
5	0x3e9cd05b	0.30627713
6	0x3d2b9e49	0.041899
7	0x3e474bc5	0.19462498
8	0x3eac9668	0.337085
9	0x3e5af007	0.21380626
10	0x3f081fdc	0.53173614
11	0xbe7aaa84	-0.24479109
12	0x3e59d69a	0.2127327
13	0x3efaa528	0.4895413
14	0x3d0ad9ce	0.03389912
15	0x3eae12c8	0.33998704
16	0x3e836de5	0.2566978
17	0xbe58a75b	-0.21157591
18	0x3f394a94	0.7237942
19	0xbf27676f	-0.653922
20	0xbe4e7f1e	-0.20165679
21	0x3e97322a	0.2953046
22	0x3f066171	0.52492434
23	0x3e8803be	0.26565355
24	0xbead2b92	-0.33822304
25	0x3eaa4ca3	0.33261594
26	0x3dee14e4	0.11625078
27	0x3ef105f9	0.4707487
28	0x3e9c1213	0.3048254
29	0x3d9884c9	0.07447202
30	0x3d8746fd	0.06605337
31	0xbec2d3db	-0.38052258
32	0xbd8130e7	-0.063081555
33	0xbec4f87f	-0.38470837
34	0xbf9f9554	-1.2467446
35	0xbd60cd35	-0.0548832
36	0x3e9b5fa4	0.30346406
37	0x3e53d70b	0.20687501
38	0xbf8c1453	-1.0943702
39	0xbf2f60b0	-0.6850691
40	0x3db187cb	0.086684786
41	0xbf8d6d38	-1.1048956
42	0xbe63e876	-0.22256646
43	0x3db7fe55	0.08984057
44	0xbf5327b1	-0.8248244
45	0x3e039cd5	0.12852795
46	0xbe41d908	-0.18930447
47	0x3ef28bf6	0.47372407
48	0x3eb318e2	0.34979922
49	0x3e6b3378	0.22968853
50	0xbef9985b	-0.4874905
51	0x3e092f33	0.13396911
52	0x3e30af0e	0.17254278
53	0x3d95fa1a	0.07323094
54	0xbe985e1d	-0.29759303
55	0x3f40c341	0.75297934
56	0x3d7621d6	0.060090862
57	0xbf237ccd	-0.63862306
58	0x3d4b7532	0.049672313
59	0x3e2cc1f1	0.16870858
60	0x3f202765	0.6256011
61	0x3e7120f3	0.23547725
62	0xbfc4f2aa	-1.5386555
63	0xbf8971b7	-1.0737828
64	0xbdbc193e	-0.09184502
65	0xbf738f11	-0.95140177
66	0x3e0faf8b	0.14031808
67	0xbecb8bad	-0.39755002
68	0x3f291a87	0.660561
69	0x3ec9cd01	0.39414218
70	0xbd8231f5	-0.06357185
71	0x3e332c78	0.17497432
72	0x3ec2161f	0.37907502
73	0x3e5a615d	0.21326204
74	0xbec83637	-0.39103863
75	0xbbdbc715	-0.006707082
76	0x3e6d5223	0.23175864
77	0x3f3ca7fc	0.73693824
78	0x3d34fa56	0.04418405
79	0x3f1b7bce	0.60735786
80	0x3e1c9054	0.15289432
81	0xbe5e6edb	-0.21721976
82	0x3edb9bd3	0.42892322
83	0x3e48e5e0	0.1961894
84	0xbdb4a978	-0.08821386
85	0x3ee22089	0.44165447
86	0x3f5993ab	0.8499095
87	0x3e50d85e	0.20395038
88	0xbd95a0e3	-0.07306077
89	0x3eca5b9a	0.3952301
90	0x3e4d014c	0.20020026
91	0xbf301515	-0.6878217
92	0x3ea7506a	0.3267854
93	0x3d0a2144	0.03372313
94	0x3dda6f2c	0.106657356
95	0xbf42ddfb	-0.76119965
96	0x3d16a3a3	0.03677715
97	0xbed87ce0	-0.42282772
98	0x3e4815b3	0.19539528
99	0x3ed7ea04	0.42170727
100	0x3e95bc71	0.29245332
101	0x3e6b3761	0.22970344
102	0xbd8f073b	-0.06983801
103	0x3f7e16ff	0.9925384
104	0x3dc3a95f	0.09553789
105	0x3ed66f95	0.41882005
106	0xbe57ab4e	-0.21061441
107	0x3d127fa4	0.03576626
108	0x3af7f63a	0.0018917986
109	0x3dc93f55	0.09826533
110	0xbea44967	-0.32087252
111	0xbefb9b68	-0.49142003
112	0x3efe8954	0.49714148
113	0x3ea2e78f	0.3181729
114	0xbf952554	-1.1652017
115	0x3e50b07f	0.20379828
116	0x3dd3ca54	0.103413254
117	0xbf4d49dc	-0.80190825
118	0x3f153643	0.5828592
119	0x3f82f2d5	1.0230356
120	0xbaaf28a9	-0.0013363558
121	0x3eaf0eb4	0.34190905
122	0x3de7e6c8	0.11323315
123	0x3e8bcaf4	0.27303278
124	0xbe730156	-0.23730978
125	0x3e7406b0	0.23830676
126	0x3e6ec364	0.23316723
127	0xbeb8c440	-0.36087227
128	0x3d66b8a0	0.056328416
129	0x3e94ac03	0.29037485
130	0x3e4cfa31	0.20017315
131	0x3d872e96	0.066006824
132	0x3eebb635	0.4603745
133	0x3e5797e5	0.21054037
134	0xbf82e1f6	-1.0225208
135	0xbf95d921	-1.1706887
136	0xbc7e345e	-0.015515415
137	0x3de5f887	0.112290435
138	0xbc9ae4e3	-0.01890797
139	0x3e180751	0.14846541
140	0x3e1cd1d2	0.15314415
141	0xbeecb006	-0.46228045
142	0xbf07968a	-0.5296408
143	0xbf7c741a	-0.98614657
144	0x3e45a648	0.19301713
145	0xbe839312	-0.25698143
146	0x3f5b5ee4	0.85691667
147	0x3ee766b0	0.45195532
148	0xbdbb82b1	-0.09155787
149	0x3cac3f56	0.021026295
150	0x3eb324ff	0.34989163
151	0x3f069218	0.5256667
152	0xbe9f0f58	-0.31066394
153	0x3ea945a5	0.33060947
154	0xbe3bf079	-0.18353452
155	0x3f177754	0.59166455
156	0x3ea6c867	0.3257477
157	0x3ddf437d	0.10901544
158	0xbbe59cf5	-0.007007236
159	0xbd7cd494	-0.061726168
160	0x3e41b61e	0.18917128
161	0xbe8bb975	-0.2728993
162	0x3e50fb30	0.2040832
163	0xbe2aa73d	-0.16665359
164	0x3e1a29d5	0.1505502
165	0x3e58cb62	0.21171334
166	0xbe1c1383	-0.15241818
167	0x3f47c734	0.78038335
168	0xbe2fadcb	-0.1715614
169	0x3ed31bc9	0.41232136
170	0xbeb63cc8	-0.35593247
171	0xbd026811	-0.031837527
172	0x3e8a36cb	0.2699493
173	0xbe780ddb	-0.24224035
174	0xbee78118	-0.45215678
175	0x3f2779af	0.6542005
176	0x3f14e40f	0.5816049
177	0x3e759971	0.23984315
178	0x3e2c83ef	0.16847204
179	0x3ea3efe6	0.32018965
180	0xbea1e1ce	-0.31617588
181	0xbfaf2894	-1.3684258
182	0xbf0898c1	-0.53358084
183	0x3f09db08	0.5384984
184	0xbea5d5c4	-0.32389653
185	0x3d5e49b0	0.054269493
186	0x3e945791	0.28973058
187	0x3ec50a86	0.3848459
188	0x3f4fc1a4	0.8115485
189	0x3e2b3b7a	0.16721907
190	0x3e8ed951	0.27900174
191	0xbf1a7324	-0.6033194
192	0xbf958a3c	-1.1682811
193	0x3e9f9bd6	0.3117358
194	0x3e3dbd3e	0.18529221
195	0xbe2136d7	-0.15743576
196	0x3d222fa2	0.039596207
197	0x3ed38d21	0.4131861
198	0xbe220af5	-0.15824492
199	0xbcd61664	-0.026133724
200	0xbebd1d3d	-0.3693637
201	0x3e8ddf0e	0.2770924
202	0x3f009201	0.50222784
203	0xbf258356	-0.6465353
204	0x3e8ce737	0.27520153
205	0x3f24037b	0.6406781
206	0x3dd87344	0.1056886
207	0x3d39a469	0.04532281
208	0x3e6c0189	0.2304746
209	0xbe3bdc68	-0.18345797
210	0xbf37e776	-0.71837556
211	0x3e2c677a	0.16836348
212	0xbde23f61	-0.11047245
213	0x3e02baea	0.12766615
214	0x3f546ed9	0.8298164
215	0x3e686b43	0.22697167
216	0xbf187227	-0.5954918
217	0x3ef2a2d2	0.47389847
218	0x3ecce4c9	0.400183
219	0x3f32afc1	0.6979943
220	0x3ea6f17f	0.32606122
221	0xbf27ca76	-0.65543306
222	0x3dcf4648	0.10120827
223	0xbe081d0e	-0.13292333
224	0xbdd70ff1	-0.105010875
225	0xbe408957	-0.18802391
226	0xbbc35a55	-0.005961696
227	0x3f6179f3	0.88076705
228	0x3e4fec9d	0.20305105
229	0x3e0ec0d7	0.1394075
230	0xbeb816d7	-0.35954925
231	0x3e94741e	0.2899484
232	0x3e6b7c23	0.22996573
233	0xbe0fd7f3	-0.14047222
234	0xbc5b3867	-0.013380147
235	0xbd4fb1b0	-0.050706565
236	0x3e6dc110	0.23218179
237	0x3e96aeee	0.29430336
238	0xbd35ce4f	-0.044386204
239	0x3f3515f1	0.70736605
240	0x3dfef0a1	0.1244824
241	0x3e670ec3	0.22564225
242	0x3e2f0958	0.17093408
243	0x3dc2d06a	0.09512408
244	0x3e227eb4	0.15868646
245	0xbf0dd747	-0.5540661
246	0x3e989ba9	0.2980626
247	0x3f5609ba	0.8360859
248	0xbea69465	-0.3253509
249	0x3edbf9e5	0.42964092
250	0x3b9cf266	0.0047896383
251	0xbd702082	-0.058624752
252	0x3f08f712	0.53502
253	0x3e3ed827	0.18637143
254	0x3dafbf1d	0.08581374
255	0x3de5640c	0.11200723

network.fc2.bias f4 [4]
0	0x3f54a2c2	0.8306085
1	0x3f13cfa6	0.5773872
2	0x3f3a03e9	0.72662216
3	0x3f2b5878	0.6693187
